…
   "cell_type": "code",
   "execution_count": 24,
   "metadata": {},
   "outputs": [
    {
     "name": "stdout",
     "output_type": "stream",
     "text": [
      "Model: \"model\"\n",
      "_________________________________________________________________\n",
      " Layer (type)                Output Shape              Param #   \n",
      "=================================================================\n",
      " input_1 (InputLayer)        [(None, 128, 128, 3)]     0         \n",
      "                                                                 \n",
      " block1_conv1 (Conv2D)       (None, 128, 128, 64)      1792      \n",
      "                                                                 \n",
      " block1_conv2 (Conv2D)       (None, 128, 128, 64)      36928     \n",
      "                                                                 \n",
      " block1_pool (MaxPooling2D)  (None, 64, 64, 64)        0         \n",
      "                                                                 \n",
      " block2_conv1 (Conv2D)       (None, 64, 64, 128)       73856     \n",
      "                                                                 \n",
      " block2_conv2 (Conv2D)       (None, 64, 64, 128)       147584    \n",
      "                                                                 \n",
      " block2_pool (MaxPooling2D)  (None, 32, 32, 128)       0         \n",
      "                                                                 \n",
      " block3_conv1 (Conv2D)       (None, 32, 32, 256)       295168    \n",
      "                                                                 \n",
      " block3_conv2 (Conv2D)       (None, 32, 32, 256)       590080    \n",
      "                                                                 \n",
      " block3_conv3 (Conv2D)       (None, 32, 32, 256)       590080    \n",
      "                                                                 \n",
      " block3_pool (MaxPooling2D)  (None, 16, 16, 256)       0         \n",
      "                                                                 \n",
      " block4_conv1 (Conv2D)       (None, 16, 16, 512)       1180160   \n",
      "                                                                 \n",
      " block4_conv2 (Conv2D)       (None, 16, 16, 512)       2359808   \n",
      "                                                                 \n",
      " block4_conv3 (Conv2D)       (None, 16, 16, 512)       2359808   \n",
      "                                                                 \n",
      " block4_pool (MaxPooling2D)  (None, 8, 8, 512)         0         \n",
      "                                                                 \n",
      " block5_conv1 (Conv2D)       (None, 8, 8, 512)         2359808   \n",
      "                                                                 \n",
      " block5_conv2 (Conv2D)       (None, 8, 8, 512)         2359808   \n",
      "                                                                 \n",
      " block5_conv3 (Conv2D)       (None, 8, 8, 512)         2359808   \n",
      "                                                                 \n",
      " block5_pool (MaxPooling2D)  (None, 4, 4, 512)         0         \n",
      "                                                                 \n",
      " global_max_pooling2d (Glob  (None, 512)               0         \n",
      " alMaxPooling2D)                                                 \n",
      "                                                                 \n",
      " dense_2 (Dense)             (None, 512)               262656    \n",
      "                                                                 \n",
      " dense_3 (Dense)             (None, 22)                11286     \n",
      "                                                                 \n",
      "=================================================================\n",
      "Total params: 14988630 (57.18 MB)\n",
      "Trainable params: 273942 (1.05 MB)\n",
      "Non-trainable params: 14714688 (56.13 MB)\n",
      "_________________________________________________________________\n"
     ]
    }
   ],
…
